Model: "model"
_________________________________________________________________
 Layer (type)                Output Shape              Param #   
=================================================================
 input_1 (InputLayer)        [(None, 100)]             0         
                                                                 
 dense (Dense)               (None, 12544)             1254400   
                                                                 
 batch_normalization (Batch  (None, 12544)             50176     
 Normalization)                                                  
                                                                 
 leaky_re_lu (LeakyReLU)     (None, 12544)             0         
                                                                 
 reshape (Reshape)           (None, 7, 7, 256)         0         
                                                                 
 conv2d_transpose (Conv2DTr  (None, 7, 7, 128)         819200    
 anspose)                                                        
                                                                 
 batch_normalization_1 (Bat  (None, 7, 7, 128)         512       
 chNormalization)                                                
                                                                 
 leaky_re_lu_1 (LeakyReLU)   (None, 7, 7, 128)         0         
                                                                 
 conv2d_transpose_1 (Conv2D  (None, 14, 14, 64)        204800    
 Transpose)                                                      
                                                                 
 batch_normalization_2 (Bat  (None, 14, 14, 64)        256       
 chNormalization)                                                
                                                                 
 leaky_re_lu_2 (LeakyReLU)   (None, 14, 14, 64)        0         
                                                                 
 conv2d_transpose_2 (Conv2D  (None, 28, 28, 1)         1600      
 Transpose)                                                      
                                                                 
=================================================================
Total params: 2330944 (8.89 MB)
Trainable params: 2305472 (8.79 MB)
Non-trainable params: 25472 (99.50 KB)
_________________________________________________________________
Model: "model"
__________________________________________________________________________________________________
 Layer (type)                Output Shape                 Param #   Connected to                  
==================================================================================================
 input_1 (InputLayer)        [(None, 100)]                0         []                            
                                                                                                  
 input_2 (InputLayer)        [(None, 10)]                 0         []                            
                                                                                                  
 dense (Dense)               (None, 256)                  25856     ['input_1[0][0]']             
                                                                                                  
 dense_1 (Dense)             (None, 256)                  2816      ['input_2[0][0]']             
                                                                                                  
 tf.concat (TFOpLambda)      (None, 512)                  0         ['dense[0][0]',               
                                                                     'dense_1[0][0]']             
                                                                                                  
 dense_2 (Dense)             (None, 512)                  262656    ['tf.concat[0][0]']           
                                                                                                  
 dense_3 (Dense)             (None, 784)                  402192    ['dense_2[0][0]']             
                                                                                                  
 reshape (Reshape)           (None, 28, 28, 1)            0         ['dense_3[0][0]']             
                                                                                                  
==================================================================================================
Total params: 693520 (2.65 MB)
Trainable params: 693520 (2.65 MB)
Non-trainable params: 0 (0.00 Byte)
__________________________________________________________________________________________________
Model: "model_1"
_________________________________________________________________
 Layer (type)                Output Shape              Param #   
=================================================================
 input_2 (InputLayer)        [(None, 28, 28, 1)]       0         
                                                                 
 conv2d (Conv2D)             (None, 14, 14, 64)        1664      
                                                                 
 leaky_re_lu_3 (LeakyReLU)   (None, 14, 14, 64)        0         
                                                                 
 dropout (Dropout)           (None, 14, 14, 64)        0         
                                                                 
 conv2d_1 (Conv2D)           (None, 7, 7, 128)         204928    
                                                                 
 leaky_re_lu_4 (LeakyReLU)   (None, 7, 7, 128)         0         
                                                                 
 dropout_1 (Dropout)         (None, 7, 7, 128)         0         
                                                                 
 flatten (Flatten)           (None, 6272)              0         
                                                                 
 dense_1 (Dense)             (None, 1)                 6273      
                                                                 
=================================================================
Total params: 212865 (831.50 KB)
Trainable params: 212865 (831.50 KB)
Non-trainable params: 0 (0.00 Byte)
_________________________________________________________________
Model: "model_1"
__________________________________________________________________________________________________
 Layer (type)                Output Shape                 Param #   Connected to                  
==================================================================================================
 input_3 (InputLayer)        [(None, 28, 28, 1)]          0         []                            
                                                                                                  
 flatten (Flatten)           (None, 784)                  0         ['input_3[0][0]']             
                                                                                                  
 input_4 (InputLayer)        [(None, 10)]                 0         []                            
                                                                                                  
 maxout_dense (MaxoutDense)  (None, 5, 240)               942000    ['flatten[0][0]']             
                                                                                                  
 maxout_dense_1 (MaxoutDens  (None, 5, 50)                2750      ['input_4[0][0]']             
 e)                                                                                               
                                                                                                  
 tf.concat_1 (TFOpLambda)    (None, 5, 290)               0         ['maxout_dense[0][0]',        
                                                                     'maxout_dense_1[0][0]']      
                                                                                                  
 maxout_dense_2 (MaxoutDens  (None, 4, 240)               279360    ['tf.concat_1[0][0]']         
 e)                                                                                               
                                                                                                  
 dense_7 (Dense)             (None, 4, 1)                 241       ['maxout_dense_2[0][0]']      
                                                                                                  
==================================================================================================
Total params: 1224351 (4.67 MB)
Trainable params: 1224351 (4.67 MB)
Non-trainable params: 0 (0.00 Byte)
__________________________________________________________________________________________________
Model: "sequential"
_________________________________________________________________
 Layer (type)                Output Shape              Param #   
=================================================================
 dense (Dense)               (None, 12544)             1254400   
                                                                 
 batch_normalization (Batch  (None, 12544)             50176     
 Normalization)                                                  
                                                                 
 leaky_re_lu (LeakyReLU)     (None, 12544)             0         
                                                                 
 reshape (Reshape)           (None, 7, 7, 256)         0         
                                                                 
 conv2d_transpose (Conv2DTr  (None, 7, 7, 128)         819200    
 anspose)                                                        
                                                                 
 batch_normalization_1 (Bat  (None, 7, 7, 128)         512       
 chNormalization)                                                
                                                                 
 leaky_re_lu_1 (LeakyReLU)   (None, 7, 7, 128)         0         
                                                                 
 conv2d_transpose_1 (Conv2D  (None, 14, 14, 64)        204800    
 Transpose)                                                      
                                                                 
 batch_normalization_2 (Bat  (None, 14, 14, 64)        256       
 chNormalization)                                                
                                                                 
 leaky_re_lu_2 (LeakyReLU)   (None, 14, 14, 64)        0         
                                                                 
 conv2d_transpose_2 (Conv2D  (None, 28, 28, 1)         1600      
 Transpose)                                                      
                                                                 
=================================================================
Total params: 2330944 (8.89 MB)
Trainable params: 2305472 (8.79 MB)
Non-trainable params: 25472 (99.50 KB)
_________________________________________________________________
Model: "sequential_1"
_________________________________________________________________
 Layer (type)                Output Shape              Param #   
=================================================================
 conv2d (Conv2D)             (None, 14, 14, 64)        1664      
                                                                 
 leaky_re_lu_3 (LeakyReLU)   (None, 14, 14, 64)        0         
                                                                 
 dropout (Dropout)           (None, 14, 14, 64)        0         
                                                                 
 conv2d_1 (Conv2D)           (None, 7, 7, 128)         204928    
                                                                 
 leaky_re_lu_4 (LeakyReLU)   (None, 7, 7, 128)         0         
                                                                 
 dropout_1 (Dropout)         (None, 7, 7, 128)         0         
                                                                 
 flatten (Flatten)           (None, 6272)              0         
                                                                 
 dense_1 (Dense)             (None, 1)                 6273      
                                                                 
=================================================================
Total params: 212865 (831.50 KB)
Trainable params: 212865 (831.50 KB)
Non-trainable params: 0 (0.00 Byte)
_________________________________________________________________
Model: "model"
_________________________________________________________________
 Layer (type)                Output Shape              Param #   
=================================================================
 input_1 (InputLayer)        [(None, 100)]             0         
                                                                 
 dense (Dense)               (None, 12544)             1254400   
                                                                 
 batch_normalization (Batch  (None, 12544)             50176     
 Normalization)                                                  
                                                                 
 leaky_re_lu (LeakyReLU)     (None, 12544)             0         
                                                                 
 reshape (Reshape)           (None, 7, 7, 256)         0         
                                                                 
 conv2d_transpose (Conv2DTr  (None, 7, 7, 128)         819200    
 anspose)                                                        
                                                                 
 batch_normalization_1 (Bat  (None, 7, 7, 128)         512       
 chNormalization)                                                
                                                                 
 leaky_re_lu_1 (LeakyReLU)   (None, 7, 7, 128)         0         
                                                                 
 conv2d_transpose_1 (Conv2D  (None, 14, 14, 64)        204800    
 Transpose)                                                      
                                                                 
 batch_normalization_2 (Bat  (None, 14, 14, 64)        256       
 chNormalization)                                                
                                                                 
 leaky_re_lu_2 (LeakyReLU)   (None, 14, 14, 64)        0         
                                                                 
 conv2d_transpose_2 (Conv2D  (None, 28, 28, 1)         1600      
 Transpose)                                                      
                                                                 
=================================================================
Total params: 2330944 (8.89 MB)
Trainable params: 2305472 (8.79 MB)
Non-trainable params: 25472 (99.50 KB)
_________________________________________________________________
Model: "model_1"
_________________________________________________________________
 Layer (type)                Output Shape              Param #   
=================================================================
 input_2 (InputLayer)        [(None, 28, 28, 1)]       0         
                                                                 
 conv2d (Conv2D)             (None, 14, 14, 64)        1664      
                                                                 
 leaky_re_lu_3 (LeakyReLU)   (None, 14, 14, 64)        0         
                                                                 
 dropout (Dropout)           (None, 14, 14, 64)        0         
                                                                 
 conv2d_1 (Conv2D)           (None, 7, 7, 128)         204928    
                                                                 
 leaky_re_lu_4 (LeakyReLU)   (None, 7, 7, 128)         0         
                                                                 
 dropout_1 (Dropout)         (None, 7, 7, 128)         0         
                                                                 
 flatten (Flatten)           (None, 6272)              0         
                                                                 
 dense_1 (Dense)             (None, 1)                 6273      
                                                                 
=================================================================
Total params: 212865 (831.50 KB)
Trainable params: 212865 (831.50 KB)
Non-trainable params: 0 (0.00 Byte)
_________________________________________________________________
[0/1000] D_loss=0.10153 G_loss=3.60418  [0/1000] D_loss=-1.63397 G_loss=-0.68278  [0/1
…
[661/1000] D_loss=0.02502 G_loss=-2.30553  [998/1000] D_loss=-0.01553 G_loss=-0.34317  [479/1000] D_loss=0.42602 G_loss=0.28719  [999/1000] D_loss=-0.01563 G_loss=-0.34483  [662/1000] D_loss=0.02790 G_loss=-2.28901  [1000/1000] D_loss=-0.01586 G_loss=-0.35444  [480/1000] D_loss=0.42750 G_loss=0.28468  [663/1000] D_loss=0.02926 G_loss=-2.30288  Model: "sequential"
_________________________________________________________________
 Layer (type)                Output Shape              Param #   
=================================================================
 dense (Dense)               (None, 64)                6464      
                                                                 
 dense_1 (Dense)             (None, 64)                4160      
                                                                 
 dense_2 (Dense)             (None, 784)               50960     
                                                                 
 reshape (Reshape)           (None, 28, 28, 1)         0         
                                                                 
=================================================================
Total params: 61584 (240.56 KB)
Trainable params: 61584 (240.56 KB)
Non-trainable params: 0 (0.00 Byte)
_________________________________________________________________
Model: "sequential_1"
_________________________________________________________________
 Layer (type)                Output Shape              Param #   
=================================================================
 flatten (Flatten)           (None, 784)               0         
                                                                 
 dense_3 (Dense)             (None, 64)                50240     
                                                                 
 leaky_re_lu (LeakyReLU)     (None, 64)                0         
                                                                 
 dense_4 (Dense)             (None, 64)                4160      
                                                                 
 leaky_re_lu_1 (LeakyReLU)   (None, 64)                0         
                                                                 
 dense_5 (Dense)             (None, 1)                 65        
                                                                 
=================================================================
Total params: 54465 (212.75 KB)
Trainable params: 54465 (212.75 KB)
Non-trainable params: 0 (0.00 Byte)
_________________________________________________________________
[664/1000] D_loss=0.02933 G_loss=-2.29975  [481/1000] D_loss=0.42582 G_loss=0.28577  [
…
9 Total_loss=2.51164 [891/1000] D_loss=0.93465 G_loss=1.57653 Total_loss=2.51118 [1000/1000] D_loss=0.02310 G_loss=-2.09447  [742/1000] D_loss=0.43756 G_loss=0.26770  [892/1000] D_loss=0.93473 G_loss=1.57627 Total_loss=2.51100 [893/1000] D_loss=0.93453 G_loss=1.57623 Total_loss=2.51076 [894/1000] D_loss=0.93416 G_loss=1.57643 Total_loss=2.51059 Model: "sequential"
_________________________________________________________________
 Layer (type)                Output Shape              Param #   
=================================================================
 dense (Dense)               (None, 12544)             1254400   
                                                                 
 batch_normalization (Batch  (None, 12544)             50176     
 Normalization)                                                  
                                                                 
 leaky_re_lu (LeakyReLU)     (None, 12544)             0         
                                                                 
 reshape (Reshape)           (None, 7, 7, 256)         0         
                                                                 
 conv2d_transpose (Conv2DTr  (None, 7, 7, 128)         819200    
 anspose)                                                        
                                                                 
 batch_normalization_1 (Bat  (None, 7, 7, 128)         512       
 chNormalization)                                                
                                                                 
 leaky_re_lu_1 (LeakyReLU)   (None, 7, 7, 128)         0         
                                                                 
 conv2d_transpose_1 (Conv2D  (None, 14, 14, 64)        204800    
 Transpose)                                                      
                                                                 
 batch_normalization_2 (Bat  (None, 14, 14, 64)        256       
 chNormalization)                                                
                                                                 
 leaky_re_lu_2 (LeakyReLU)   (None, 14, 14, 64)        0         
                                                                 
 conv2d_transpose_2 (Conv2D  (None, 28, 28, 1)         1600      
 Transpose)                                                      
                                                                 
=================================================================
Total params: 2330944 (8.89 MB)
Trainable params: 2305472 (8.79 MB)
Non-trainable params: 25472 (99.50 KB)
_________________________________________________________________
Model: "sequential_1"
_________________________________________________________________
 Layer (type)                Output Shape              Param #   
=================================================================
 conv2d (Conv2D)             (None, 14, 14, 64)        1664      
                                                                 
 leaky_re_lu_3 (LeakyReLU)   (None, 14, 14, 64)        0         
                                                                 
 dropout (Dropout)           (None, 14, 14, 64)        0         
                                                                 
 conv2d_1 (Conv2D)           (None, 7, 7, 128)         204928    
                                                                 
 leaky_re_lu_4 (LeakyReLU)   (None, 7, 7, 128)         0         
                                                                 
 dropout_1 (Dropout)         (None, 7, 7, 128)         0         
                                                                 
 flatten (Flatten)           (None, 6272)              0         
                                                                 
 dense_1 (Dense)             (None, 1)                 6273      
                                                                 
=================================================================
Total params: 212865 (831.50 KB)
Trainable params: 212865 (831.50 KB)
Non-trainable params: 0 (0.00 Byte)
_________________________________________________________________
[895/1000] D_loss=0.93409 G_loss=1.57606 Total_loss=2.51015 [743/1000] D_loss=0.43803 G
…
 Layer (type)                Output Shape                 Param #   Connected to                  
==================================================================================================
 input_1 (InputLayer)        [(None, 100)]                0         []                            
                                                                                                  
 input_2 (InputLayer)        [(None, 10)]                 0         []                            
                                                                                                  
 dense (Dense)               (None, 256)                  25856     ['input_1[0][0]']             
                                                                                                  
 dense_1 (Dense)             (None, 256)                  2816      ['input_2[0][0]']             
                                                                                                  
 tf.concat (TFOpLambda)      (None, 512)                  0         ['dense[0][0]',               
                                                                     'dense_1[0][0]']             
                                                                                                  
 dense_2 (Dense)             (None, 512)                  262656    ['tf.concat[0][0]']           
                                                                                                  
 dense_3 (Dense)             (None, 784)                  402192    ['dense_2[0][0]']             
                                                                                                  
 reshape (Reshape)           (None, 28, 28, 1)            0         ['dense_3[0][0]']             
                                                                                                  
==================================================================================================
Total params: 693520 (2.65 MB)
Trainable params: 693520 (2.65 MB)
Non-trainable params: 0 (0.00 Byte)
__________________________________________________________________________________________________
Model: "model"
_________________________________________________________________
 Layer (type)                Output Shape              Param #   
=================================================================
 input_1 (InputLayer)        [(None, 100)]             0         
                                                                 
 dense (Dense)               (None, 12544)             1254400   
                                                                 
 batch_normalization (Batch  (None, 12544)             50176     
 Normalization)                                                  
                                                                 
 leaky_re_lu (LeakyReLU)     (None, 12544)             0         
                                                                 
 reshape (Reshape)           (None, 7, 7, 256)         0         
                                                                 
 conv2d_transpose (Conv2DTr  (None, 7, 7, 128)         819200    
 anspose)                                                        
                                                                 
 batch_normalization_1 (Bat  (None, 7, 7, 128)         512       
 chNormalization)                                                
                                                                 
 leaky_re_lu_1 (LeakyReLU)   (None, 7, 7, 128)         0         
                                                                 
 conv2d_transpose_1 (Conv2D  (None, 14, 14, 64)        204800    
 Transpose)                                                      
                                                                 
 batch_normalization_2 (Bat  (None, 14, 14, 64)        256       
 chNormalization)                                                
                                                                 
 leaky_re_lu_2 (LeakyReLU)   (None, 14, 14, 64)        0         
                                                                 
 conv2d_transpose_2 (Conv2D  (None, 28, 28, 1)         1600      
 Transpose)                                                      
                                                                 
=================================================================
Total params: 2330944 (8.89 MB)
Trainable params: 2305472 (8.79 MB)
Non-trainable params: 25472 (99.50 KB)
_________________________________________________________________
Model: "model_1"
__________________________________________________________________________________________________
 Layer (type)                Output Shape                 Param #   Connected to                  
==================================================================================================
 input_3 (InputLayer)        [(None, 28, 28, 1)]          0         []                            
                                                                                                  
 flatten (Flatten)           (None, 784)                  0         ['input_3[0][0]']             
                                                                                                  
 input_4 (InputLayer)        [(None, 10)]                 0         []                            
                                                                                                  
 maxout_dense (MaxoutDense)  (None, 5, 240)               942000    ['flatten[0][0]']             
                                                                                                  
 maxout_dense_1 (MaxoutDens  (None, 5, 50)                2750      ['input_4[0][0]']             
 e)                                                                                               
                                                                                                  
 tf.concat_1 (TFOpLambda)    (None, 5, 290)               0         ['maxout_dense[0][0]',        
                                                                     'maxout_dense_1[0][0]']      
                                                                                                  
 maxout_dense_2 (MaxoutDens  (None, 4, 240)               279360    ['tf.concat_1[0][0]']         
 e)                                                                                               
                                                                                                  
 dense_7 (Dense)             (None, 4, 1)                 241       ['maxout_dense_2[0][0]']      
                                                                                                  
==================================================================================================
Total params: 1224351 (4.67 MB)
Trainable params: 1224351 (4.67 MB)
Non-trainable params: 0 (0.00 Byte)
__________________________________________________________________________________________________
Model: "model_1"
_________________________________________________________________
 Layer (type)                Output Shape              Param #   
=================================================================
 input_2 (InputLayer)        [(None, 28, 28, 1)]       0         
                                                                 
 conv2d (Conv2D)             (None, 14, 14, 64)        1664      
                                                                 
 leaky_re_lu_3 (LeakyReLU)   (None, 14, 14, 64)        0         
                                                                 
 dropout (Dropout)           (None, 14, 14, 64)        0         
                                                                 
 conv2d_1 (Conv2D)           (None, 7, 7, 128)         204928    
                                                                 
 leaky_re_lu_4 (LeakyReLU)   (None, 7, 7, 128)         0         
                                                                 
 dropout_1 (Dropout)         (None, 7, 7, 128)         0         
                                                                 
 flatten (Flatten)           (None, 6272)              0         
                                                                 
 dense_1 (Dense)             (None, 1)                 6273      
                                                                 
=================================================================
Total params: 212865 (831.50 KB)
Trainable params: 212865 (831.50 KB)
Non-trainable params: 0 (0.00 Byte)
_________________________________________________________________
Model: "sequential"
_________________________________________________________________
 Layer (type)                Output Shape              Param #   
=================================================================
 dense (Dense)               (None, 12544)             1254400   
                                                                 
 batch_normalization (Batch  (None, 12544)             50176     
 Normalization)                                                  
                                                                 
 leaky_re_lu (LeakyReLU)     (None, 12544)             0         
                                                                 
 reshape (Reshape)           (None, 7, 7, 256)         0         
                                                                 
 conv2d_transpose (Conv2DTr  (None, 7, 7, 128)         819200    
 anspose)                                                        
                                                                 
 batch_normalization_1 (Bat  (None, 7, 7, 128)         512       
 chNormalization)                                                
                                                                 
 leaky_re_lu_1 (LeakyReLU)   (None, 7, 7, 128)         0         
                                                                 
 conv2d_transpose_1 (Conv2D  (None, 14, 14, 64)        204800    
 Transpose)                                                      
                                                                 
 batch_normalization_2 (Bat  (None, 14, 14, 64)        256       
 chNormalization)                                                
                                                                 
 leaky_re_lu_2 (LeakyReLU)   (None, 14, 14, 64)        0         
                                                                 
 conv2d_transpose_2 (Conv2D  (None, 28, 28, 1)         1600      
 Transpose)                                                      
                                                                 
=================================================================
Total params: 2330944 (8.89 MB)
Trainable params: 2305472 (8.79 MB)
Non-trainable params: 25472 (99.50 KB)
_________________________________________________________________
Model: "sequential_1"
_________________________________________________________________
 Layer (type)                Output Shape              Param #   
=================================================================
 conv2d (Conv2D)             (None, 14, 14, 64)        1664      
                                                                 
 leaky_re_lu_3 (LeakyReLU)   (None, 14, 14, 64)        0         
                                                                 
 dropout (Dropout)           (None, 14, 14, 64)        0         
                                                                 
 conv2d_1 (Conv2D)           (None, 7, 7, 128)         204928    
                                                                 
 leaky_re_lu_4 (LeakyReLU)   (None, 7, 7, 128)         0         
                                                                 
 dropout_1 (Dropout)         (None, 7, 7, 128)         0         
                                                                 
 flatten (Flatten)           (None, 6272)              0         
                                                                 
 dense_1 (Dense)             (None, 1)                 6273      
                                                                 
=================================================================
Total params: 212865 (831.50 KB)
Trainable params: 212865 (831.50 KB)
Non-trainable params: 0 (0.00 Byte)
_________________________________________________________________
Model: "model"
_________________________________________________________________
 Layer (type)                Output Shape              Param #   
=================================================================
 input_1 (InputLayer)        [(None, 100)]             0         
                                                                 
 dense (Dense)               (None, 12544)             1254400   
                                                                 
 batch_normalization (Batch  (None, 12544)             50176     
 Normalization)                                                  
                                                                 
 leaky_re_lu (LeakyReLU)     (None, 12544)             0         
                                                                 
 reshape (Reshape)           (None, 7, 7, 256)         0         
                                                                 
 conv2d_transpose (Conv2DTr  (None, 7, 7, 128)         819200    
 anspose)                                                        
                                                                 
 batch_normalization_1 (Bat  (None, 7, 7, 128)         512       
 chNormalization)                                                
                                                                 
 leaky_re_lu_1 (LeakyReLU)   (None, 7, 7, 128)         0         
                                                                 
 conv2d_transpose_1 (Conv2D  (None, 14, 14, 64)        204800    
 Transpose)                                                      
                                                                 
 batch_normalization_2 (Bat  (None, 14, 14, 64)        256       
 chNormalization)                                                
                                                                 
 leaky_re_lu_2 (LeakyReLU)   (None, 14, 14, 64)        0         
                                                                 
 conv2d_transpose_2 (Conv2D  (None, 28, 28, 1)         1600      
 Transpose)                                                      
                                                                 
=================================================================
Total params: 2330944 (8.89 MB)
Trainable params: 2305472 (8.79 MB)
Non-trainable params: 25472 (99.50 KB)
_________________________________________________________________
Model: "model_1"
_________________________________________________________________
 Layer (type)                Output Shape              Param #   
=================================================================
 input_2 (InputLayer)        [(None, 28, 28, 1)]       0         
                                                                 
 conv2d (Conv2D)             (None, 14, 14, 64)        1664      
                                                                 
 leaky_re_lu_3 (LeakyReLU)   (None, 14, 14, 64)        0         
                                                                 
 dropout (Dropout)           (None, 14, 14, 64)        0         
                                                                 
 conv2d_1 (Conv2D)           (None, 7, 7, 128)         204928    
                                                                 
 leaky_re_lu_4 (LeakyReLU)   (None, 7, 7, 128)         0         
                                                                 
 dropout_1 (Dropout)         (None, 7, 7, 128)         0         
                                                                 
 flatten (Flatten)           (None, 6272)              0         
                                                                 
 dense_1 (Dense)             (None, 1)                 6273      
                                                                 
=================================================================
Total params: 212865 (831.50 KB)
Trainable params: 212865 (831.50 KB)
Non-trainable params: 0 (0.00 Byte)
_________________________________________________________________
[0/1000] D_loss=0.89386 G_loss=1.36330  [0/1000] D_loss=-0.01591 G_loss=-0.33967  [1/1
…
